model.onnx (onnx, 23116 bytes, 3 tensors)

1 f4 [2, 8]
00000000: e339 2e3f d782 d83f 55fc a9be 2203 9b3d
00000010: 7bf2 973e 9211 c33f db9c 923f 2c14 19bd
00000020: 14d0 0fbe 6009 b43f e4d1 e1be e9a5 afbf
00000030: 5b58 e2bf 3484 833f 6938 ffbe 2104 94bf
0.6805708 1.6914929 -0.33200327 0.07568957 0.29677185 1.5239737 1.1454118 -0.037372753
-0.1404422 1.4065361 -0.44105446 -1.3722507 -1.7683214 1.027472 -0.49847725 -1.156376

2 f4 [2]
00000000: 140d fbbf ac2a a0bf
-1.9613366 -1.2513022

3 f4 [1, 2]
00000000: dfa2 b540 6084 403f
5.6761317 0.7520199
